_________________________________________________________________
Layer (type)                 Output Shape              Param #   
=================================================================
conv2d_1 (Conv2D)            (None, 94, 94, 32)        320       
_________________________________________________________________
conv2d_2 (Conv2D)            (None, 92, 92, 64)        18496     
_________________________________________________________________
max_pooling2d_1 (MaxPooling2 (None, 46, 46, 64)        0         
_________________________________________________________________
flatten_1 (Flatten)          (None, 135424)            0         
_________________________________________________________________
dense_1 (Dense)              (None, 100)               13542500  
_________________________________________________________________
dropout_1 (Dropout)          (None, 100)               0         
_________________________________________________________________
dense_2 (Dense)              (None, 30)                3030      
=================================================================
Total params: 13,564,346
Trainable params: 13,564,346
Non-trainable params: 0
_________________________________________________________________

